app/src/main/assets/pose_classifier.tflite (tflite, 26720 bytes, 6 tensors)

model/dense_2/MatMul f4 [2, 64]
0.07692367 -0.10119656 0.17541024 -0.03811336 0.17068312 -0.22974637 0.21719788 -0.06616508
-0.1421627 0.31120375 -0.27518263 -0.21559818 -0.14841652 -0.23521246 0.059482355 0.19827089
-0.024579296 0.29290366 -0.21832801 0.14044447 -0.18486479 -0.2856838 0.30737698 0.029106027
0.021935625 0.011987195 -0.019755583 -0.2258137 0.2727928 0.19057436 0.11709032 0.16173124
-0.1202145 0.058960993 -0.22237934 -0.0025044198 0.14011003 -0.14390403 0.18140344 -0.094773315
-0.2202716 0.20734948 -0.04624927 -0.2254739 -0.004848591 -0.013308976 -0.044196073 0.06888633
0.29910228 0.25796494 0.01809766 0.05602641 -0.034905054 0.12996218 -0.25019753 0.012343478
0.25027797 0.051452264 -0.06348358 -0.1013985 0.28177896 0.26609737 -0.17305838 0.22086233
-0.28011966 0.26606962 0.06801633 -0.2187256 -0.2837343 -0.08691644 -0.30548483 0.15525387
-0.20025611 -0.043847274 0.105934575 0.07255926 -0.025888644 0.22924702 -0.29436043 -0.20062953
-0.045660157 0.050945073 -0.04331979 0.19096111 -0.17530252 0.21664195 -0.30312112 -0.2930065
-0.08761996 -0.054855507 -0.27770227 0.27898246 -0.28794476 -0.13510005 -0.20626001 0.004009846
-0.004187842 -0.25966242 -0.010046216 -0.12698002 0.28448746 0.29752415 0.27835795 -0.17148969
-0.122257836 0.09255805 -0.28785208 -0.27130017 -0.055681694 0.12403308 -0.2864352 -0.1444127
-0.05438202 -0.14299668 -0.27468997 0.22329421 0.12301888 0.04841812 -0.13554063 -0.1431774
0.21293408 -0.1483001 0.12679012 0.062371954 0.027753314 0.14670071 0.004162138 -0.20139667
00000000: 288a 9d3d 2440 cfbd be9e 333e c11c 1cbd
00000010: 8ec7 2e3e a242 6bbe 1f69 5e3e 8f81 87bd
00000020: 1993 11be 1956 9f3e bde4 8cbe c5c5 5cbe
00000030: 80fa 17be 89db 70be c5a3 733d 8607 4b3e
00000040: 855a c9bc 78f7 953e 6191 5fbe add0 0f3e
00000050: 324d 3dbe 2645 92be 8460 9d3e c36f ee3c
00000060: 57b2 b33c f165 443c 76d6 a1bc b53b 67be
00000070: 7fab 8b3e ed25 433e 0dcd ef3d e09c 253e
00000080: 0533 f6bd 1581 713d 69b7 63be 3121 24bb
00000090: 0179 0f3e 945b 13be d3c1 393e 8318 c2bd
000000a0: e18e 61be 6c53 543e e06f 3dbd a1e2 66be
000000b0: eee0 9ebb e40d 5abc f106 35bd 4714 8d3d
000000c0: ef23 993e fb13 843e 8b41 943c f37b 653d
000000d0: 9af8 0ebd ce14 053e e419 80be 4d3c 4a3c
000000e0: 6f24 803e 9cbf 523d ae03 82bd 04aa cfbd
000000f0: 5545 903e ea3d 883e 3736 31be bc29 623e
00000100: d86b 8fbe 473a 883e 254c 8b3d 9bf9 5fbe
00000110: 9f45 91be 3f01 b2bd 8268 9cbe dffa 1e3e
00000120: f00f 4dbe 3399 33bd 3af4 d83d f399 943d
00000130: 6c14 d4bc bbbf 6a3e 69b6 96be d471 4dbe
00000140: 2506 3bbd c8ab 503d 1870 31bd 4f8b 433e
00000150: 8182 33be 63d7 5d3e b132 9bbe f304 96be
00000160: 1872 b3bd 2bb0 60bd fe2e 8ebe cad6 8e3e
00000170: 7f6d 93be ab57 0abe d335 53be 0765 833b
00000180: 2a3a 89bb 79f2 84be e298 24bc 0d07 02be
00000190: 57a8 913e 1655 983e ef84 8e3e fe9a 2fbe
000001a0: 5162 fabd 138f bd3d 5961 93be dbe7 8abe
000001b0: 7d12 64bd 0e05 fe3d a2a7 92be ece0 13be
000001c0: aebf 5ebd b96d 12be 2aa4 8cbe 3da7 643e
000001d0: 53f1 fb3d 1452 463d 2acb 0abe 199d 12be
000001e0: 640b 5a3e fbdb 17be 45d5 013e bc79 7f3d
000001f0: eb5a e33c b638 163e 8b62 883b ee3a 4ebe

model/dense/BiasAdd/ReadVariableOp f4 [128]
0.0 0.0008172903 -0.011076323 0.0 0.0 0.008440036 0.0 -0.0059172115
0.0 0.005420652 0.0 0.0 0.0 0.0 0.007648527 -0.0051596547
-0.01768927 -0.011035669 0.014848476 -0.00075315573 0.0035473914 -0.0100081945 0.0 0.0
-0.008034384 0.008688251 0.0013737015 -0.004418673 0.0 -0.013055311 0.0 0.0
0.00016987277 0.009143835 -0.0013448222 0.0 0.0 0.014589053 -0.0059162243 0.012582245
0.0 0.0 0.0 0.0 0.0 -0.00087638054 0.013005579 0.014312526
0.0 -0.006657452 0.005798785 0.0037962743 -0.0033179536 0.0 0.0 0.00711283
0.0 -0.0055050054 0.0 -0.008007621 -0.012927071 0.0 0.0 -0.0060189273
0.019529788 0.0 0.0074395477 0.0034534808 0.0 0.0 -0.0021161928 0.0
0.0 0.011765202 -0.0073040314 0.0 0.0 0.0 0.0 -0.002163571
-0.007895412 -0.0010222344 -0.00095255056 0.0 0.0 0.005906406 0.0 0.0
-0.0091368025 0.0 0.0032422782 0.0008645911 -0.007044772 0.015828725 -0.0027710157 0.0
0.0 0.0076110223 0.013990084 0.0 -0.0002067466 0.0 0.0054833945 0.0
0.0037342922 0.0 0.0015723398 -0.0072733075 -0.001253484 0.0 0.007755832 0.0
0.0 0.0 -0.0027378616 -0.0147758005 -0.008110436 -0.0035415508 0.0 0.007899496
0.021071246 -0.0010617527 0.0 -0.009115042 0.0 0.0 0.0062271897 0.0
00000000: 0000 0000 6c3f 563a 7779 35bc 0000 0000
00000010: 0000 0000 1448 0a3c 0000 0000 2be5 c1bb
00000020: 0000 0000 ba9f b13b 0000 0000 0000 0000
00000030: 0000 0000 0000 0000 7fa0 fa3b 5212 a9bb
00000040: 17e9 90bc f3ce 34bc 0647 733c 6d6f 45ba
00000050: 5a7b 683b 69f9 23bc 0000 0000 0000 0000
00000060: a6a2 03bc 2a59 0e3c c60d b43a 84ca 90bb
00000070: 0000 0000 f1e5 55bc 0000 0000 0000 0000
00000080: e01f 3239 06d0 153c bf44 b0ba 0000 0000
00000090: 0000 0000 ec06 6f3c e3dc c1bb c325 4e3c
000000a0: 0000 0000 0000 0000 0000 0000 0000 0000
000000b0: 0000 0000 e7bc 65ba 5a15 553c 167f 6a3c
000000c0: 0000 0000 c126 dabb bc03 be3b eaca 783b
000000d0: 0672 59bb 0000 0000 0000 0000 be12 e93b
000000e0: 0000 0000 5563 b4bb 0000 0000 6632 03bc
000000f0: 11cc 53bc 0000 0000 0000 0000 6c3a c5bb
00000100: effc 9f3c 0000 0000 73c7 f33b cb53 623b
00000110: 0000 0000 0000 0000 d3af 0abb 0000 0000
00000120: 0000 0000 d5c2 403c a856 efbb 0000 0000
00000130: 0000 0000 0000 0000 0000 0000 b3ca 0dbb
00000140: c25b 01bc 7ffc 85ba 96b4 79ba 0000 0000
00000150: 0000 0000 868a c13b 0000 0000 0000 0000
00000160: 87b2 15bc 0000 0000 677c 543b baa5 623a
00000170: d5d7 e6bb 3eab 813c ee99 35bb 0000 0000
00000180: 0000 0000 e265 f93b aa36 653c 0000 0000
00000190: 1eca 58b9 0000 0000 0cae b33b 0000 0000
000001a0: 07bb 743b 0000 0000 f816 ce3a ed54 eebb
000001b0: f24b a4ba 0000 0000 a224 fe3b 0000 0000
000001c0: 0000 0000 0000 0000 b26d 33bb 3316 72bc
000001d0: a2e1 04bc 5d19 68bb 0000 0000 e36c 013c
000001e0: 9b9d ac3c 822a 8bba 0000 0000 4257 15bc
000001f0: 0000 0000 0000 0000 740d cc3b 0000 0000

model/dense_2/BiasAdd/ReadVariableOp f4 [2]
0.01565051 -0.015650513
00000000: 8035 803c 8135 80bc

model/dense_1/BiasAdd/ReadVariableOp f4 [64]
0.00918829 0.005165819 0.023042878 0.00034921287 0.003925727 -0.009973087 0.0068767644 0.0018789179
-0.0091134915 0.008198147 0.0013061273 -0.013337839 -0.014659307 -0.008534794 0.016134502 -0.0069472333
0.009838086 0.0010620276 -0.01463322 -0.016031679 -0.0036009322 0.0037372129 0.005809762 0.008123235
-0.0005436357 0.014332699 0.013874377 -0.019507198 0.012690007 0.023123017 0.017775211 0.0051005627
-0.015712382 0.0019993002 -0.006459496 0.0063048713 -0.009175723 -0.002676982 -0.013009232 0.0015512727
-0.009948447 -0.00023222897 0.021628354 0.0033236656 -0.0048987027 -0.012227194 0.0022339448 -0.0034490952
0.00758589 0.0065107336 0.013555889 -0.004927314 -0.00093422196 0.018690942 -0.01636124 0.015437935
0.0035214424 0.01707019 -0.002560672 -0.004917886 0.0045537315 0.00722332 -0.004488766 -0.0019002205
00000000: 7b8a 163c 0846 a93b 6bc4 bc3c 8f16 b739
00000010: 63a3 803b 2966 23bc 7b56 e13b 0646 f63a
00000020: c150 15bc 8551 063c 5c32 ab3a f486 5abc
00000030: 972d 70bc 85d5 0bbc 812c 843c 9ea5 e3bb
00000040: ec2f 213c bc33 8b3a 2cc0 6fbc de54 83bc
00000050: 9efd 6bbb 07ec 743b d15f be3b 5117 053c
00000060: c682 0eba b2d3 6a3c 5b51 633c 8fcd 9fbc
00000070: bfe9 4f3c 7b6c bd3c 529d 913c 9f22 a73b
00000080: 41b7 80bc b106 033b 2eaa d3bb 1899 ce3b
00000090: c655 16bc 4e70 2fbb ac24 55bc 1354 cb3a
000000a0: d0fe 22bc 7d82 73b9 f22d b13c dbd1 593b
000000b0: 4c85 a0bb 9254 48bc 6067 123b 370a 62bb
000000c0: 0f93 f83b fe57 d53b 8519 5e3c 4e75 a1bb
000000d0: 93e6 74ba bf1d 993c 0208 86bc 64ef 7c3c
000000e0: 00c8 663b c8d6 8b3c f2d0 27bb 3826 a1bb
000000f0: 7837 953b 9ab1 ec3b 8016 93bb d210 f9ba

model/dense/MatMul i1 [128, 34] scale=0.0017639415 zero_point=0
0.116420135 0.15169896 0.10230861 -0.033514887 -0.005291824 0.086433135 -0.109364375 0.04939036
0.18521385 -0.091724955 0.11818408 0.065265834 -0.1869778 0.005291824 0.063501894 0.067029774
0.08466919 -0.008819708 0.026459122 0.15169896 -0.019403357 0.18344991 0.15346292 0.15522686
-0.17286627 0.03527883 0.08290525 0.019403357 0.13405955 -0.16933838 0.16404656 -0.054682188
-0.14817108 -0.11818408 -0.1446432 -0.10407255 -0.13405955 -0.18344991 0.12171196 0.15169896
-0.12171196 0.16757444 0.022931239 -0.18344991 0.08114131 -0.1446432 0.042334594 -0.019403357
0.17992203 -0.06879372 0.08466919 -0.112892255 -0.07937737 -0.052918244 -0.13582349 -0.07937737
-0.052918244 0.089961015 0.015875474 0.088197075 -0.15346292 0.14287926 -0.08466919 0.010583648
0.07055766 0.01234759 0.13229561 -0.18521385 0.14817108 -0.052918244 0.10760043 0.07055766
0.033514887 -0.11818408 -0.0934889 -0.16757444 0.0934889 -0.003527883 -0.088197075 0.065265834
0.005291824 0.13405955 0.01234759 0.17815809 0.14993502 -0.17815809 -0.09525284 -0.033514887
-0.01234759 -0.09878072 -0.022931239 -0.17639415 0.14287926 0.18168597 0.08290525 -0.029987006
0.065265834 0.10407255 0.01234759 -0.13229561 0.017639415 0.09878072 0.11994802 0.19050568
0.111128315 0.051154304 -0.014111532 -0.14817108 -0.15346292 0.16404656 -0.16757444 0.13229561
-0.029987006 0.10407255 -0.089961015 -0.18521385 -0.18874174 -0.16228262 0.056446128 -0.1658105
0.12523985 -0.111128315 -0.1869778 0.044098537 0.14640714 -0.058210067 -0.06879372 0.06879372
-0.017639415 0.028223064 -0.15169896 0.019403357 -0.005291824 -0.12876773 0.12876773 -0.06879372
0.09525284 0.028223064 0.003527883 -0.054682188 0.112892255 -0.054682188 0.017639415 0.01234759
-0.1569908 0.03704277 -0.15522686 0.08114131 -0.04762642 0.12876773 -0.026459122 0.11818408
-0.005291824 0.08114131 -0.109364375 0.14640714 0.088197075 -0.038806714 0.19226962 -0.04939036
0.040570654 0.033514887 0.12700379 0.056446128 0.07408554 0.021167297 -0.045862477 -0.021167297
-0.11994802 -0.14287926 0.09701678 -0.18344991 -0.12523985 0.12171196 -0.03527883 -0.12876773
0.06879372 0.031750947 0.14640714 -0.007055766 0.054682188 0.058210067 -0.010583648 -0.114656195
0.15169896 -0.19932538 0.13405955 0.056446128 -0.02469518 0.12171196 -0.13405955 0.03704277
-0.11818408 -0.19756144 0.044098537 0.08290525 0.008819708 -0.1658105 -0.056446128 0.028223064
-0.089961015 0.054682188 0.1869778 0.038806714 -0.17286627 0.06879372 -0.16933838 -0.15875474
0.01234759 0.029987006 -0.007055766 0.13582349 0.08466919 0.038806714 -0.17463021 -0.014111532
-0.1446432 0.058210067 -0.18521385 0.06879372 0.14287926 -0.10760043 0.015875474 -0.040570654
-0.065265834 -0.109364375 -0.15169896 0.007055766 -0.13582349 0.02469518 -0.040570654 -0.17815809
0.1869778 -0.008819708 -0.111128315 -0.14640714 0.03704277 0.058210067 -0.17286627 -0.14111532
0.17992203 0.08466919 -0.005291824 0.01234759 -0.03704277 0.014111532 0.11994802 -0.089961015
-0.14817108 -0.031750947 -0.058210067 0.045862477 -0.005291824 -0.04762642 0.04762642 -0.042334594
00000000: 4256 3aed fd31 c21c 69cc 4325 9603 2426
00000010: 30fb 0f56 f568 5758 9e14 2f0b 4ca0 5de1
00000020: acbd aec5 b498 4556 bb5f 0d98 2eae 18f5
00000030: 66d9 30c0 d3e2 b3d3 e233 0932 a951 d006
00000040: 2807 4b97 54e2 3d28 13bd cba1 35fe ce25
00000050: 034c 0765 559b caed f9c8 f39c 5167 2fef
00000060: 253b 07b5 0a38 446c 3f1d f8ac a95d a14b
00000070: ef3b cd97 95a4 20a2 47c1 9619 53df d927
00000080: f610 aa0b fdb7 49d9 3610 02e1 40e1 0a07
00000090: a715 a82e e549 f143 fd2e c253 32ea 6de4
000000a0: 1713 4820 2a0c e6f4 bcaf 3798 b945 ecb7
000000b0: 2712 53fc 1f21 fabf 568f 4c20 f245 b415
000000c0: bd90 192f 05a2 e010 cd1f 6a16 9e27 a0a6
000000d0: 0711 fc4d 3016 9df8 ae21 9727 51c3 09e9
000000e0: dbc2 aa04 b30e e99b 6afb c1ad 1521 9eb0
000000f0: 6630 fd07 eb08 44cd acee df1a fde5 1be8

model/dense_1/MatMul i1 [64, 128] scale=0.0016538966 zero_point=0
-0.066155866 -0.102541596 0.06450197 0.09261821 0.07938704 0.057886384 -0.105849385 -0.15712018
-0.12404225 0.052924693 -0.07442535 0.07607925 -0.14058122 0.0115772765 0.0066155866 0.1521585
-0.09261821 -0.0066155866 0.086002626 -0.02480845 -0.12735005 -0.12404225 0.11081108 0.08931042
0.15050459 0.13231173 0.18358253 -0.16042797 0.10750328 0.13892731 -0.01488507 -0.046309106
0.026462346 -0.051270798 0.021500656 -0.17200525 0.034731828 -0.057886384 -0.051270798 -0.0992338
0.02480845 -0.16373576 -0.15877408 0.13231173 0.052924693 -0.08765652 0.086002626 0.12238835
-0.00992338 -0.018192863 -0.00496169 0.10419549 -0.01984676 0.081040934 0.07607925 -0.00496169
0.11081108 0.12900394 -0.109157175 -0.16373576 0.10088769 0.056232486 -0.07607925 -0.09096432
-0.061194174 0.06450197 -0.18192863 -0.13561952 0.105849385 -0.16042797 -0.06450197 0.16042797
0.12569615 0.11577277 -0.0016538966 -0.05954028 0.11246497 -0.102541596 0.16208187 0.095926
0.086002626 0.10750328 -0.026462346 0.07111756 0.01488507 -0.14388901 -0.023154553 -0.0496169
-0.066155866 -0.08931042 -0.0992338 0.12238835 0.052924693 0.15050459 -0.047963 -0.023154553
-0.06450197 -0.056232486 0.12238835 -0.07277145 0.033077933 -0.052924693 0.16869746 -0.095926
0.16538966 -0.16208187 0.09261821 0.034731828 0.086002626 -0.033077933 0.12073445 0.081040934
0.08931042 -0.016538966 0.07442535 0.081040934 -0.01488507 -0.1538124 0.08765652 0.033077933
-0.07442535 0.11908056 -0.00496169 0.17531304 -0.15050459 -0.11577277 -0.052924693 -0.0033077933
-0.09096432 0.054578587 -0.18027474 0.0016538966 -0.11246497 -0.051270798 -0.109157175 -0.13561952
0.10419549 -0.12073445 0.08931042 0.05954028 -0.17365915 -0.06450197 0.034731828 0.17200525
0.14223512 0.10750328 0.07277145 -0.02480845 0.15877408 0.013231173 0.03969352 0.023154553
-0.054578587 0.12900394 0.16042797 -0.069463655 -0.14223512 -0.07277145 0.09261821 -0.0033077933
-0.16373576 0.095926 0.11081108 -0.17531304 -0.046309106 -0.14223512 -0.0066155866 -0.062848076
0.013231173 0.0033077933 0.028116243 -0.11742666 0.04465521 0.12569615 -0.062848076 0.11081108
-0.13231173 0.13892731 0.0992338 -0.054578587 0.01488507 -0.054578587 -0.038039625 0.06450197
0.08269483 0.12238835 -0.17035136 -0.16704357 -0.16869746 0.095926 -0.043001313 -0.11246497
-0.08765652 -0.016538966 0.0992338 0.18854421 0.14058122 -0.052924693 0.013231173 0.16373576
0.0496169 0.18192863 -0.14388901 0.15546629 0.1455429 -0.1521585 0.13231173 0.056232486
-0.03969352 -0.01488507 -0.07442535 0.0496169 0.086002626 -0.00496169 0.13231173 -0.09096432
-0.16704357 -0.10088769 0.1521585 0.026462346 -0.102541596 0.13396563 -0.069463655 0.1471968
0.031424038 0.11742666 0.08931042 -0.1488507 -0.16042797 -0.11742666 -0.17035136 0.11246497
-0.081040934 -0.047963 -0.046309106 0.10419549 -0.1538124 0.08765652 0.0115772765 0.028116243
-0.047963 -0.14223512 0.066155866 -0.1521585 -0.1538124 -0.13892731 -0.08931042 0.17365915
-0.16042797 -0.04465521 0.036385726 -0.07111756 -0.034731828 -0.066155866 0.0496169 -0.09261821
00000000: d8c2 2738 3023 c0a1 b520 d32e ab07 045c
00000010: c8fc 34f1 b3b5 4336 5b50 6f9f 4154 f7e4
00000020: 10e1 0d98 15dd e1c4 0f9d a050 20cb 344a
00000030: faf5 fd3f f431 2efd 434e be9d 3d22 d2c9
00000040: db27 92ae 409f d961 4c46 ffdc 44c2 623a
00000050: 3441 f02b 09a9 f2e2 d8ca c44a 205b e3f2
00000060: d9de 4ad4 14e0 66c6 649e 3815 34ec 4931
00000070: 36f6 2d31 f7a3 3514 d348 fd6a a5ba e0fe
00000080: c921 9301 bce1 beae 3fb7 3624 97d9 1568
00000090: 5641 2cf1 6008 180e df4e 61d6 aad4 38fe
000000a0: 9d3a 4396 e4aa fcda 0802 11b9 1b4c da43
000000b0: b054 3cdf 09df e927 324a 999b 9a3a e6bc
000000c0: cbf6 3c72 55e0 0863 1e6e a95e 58a4 5022
000000d0: e8f7 d31e 34fd 50c9 9bc3 5c10 c251 d659
000000e0: 1347 36a6 9fb9 9944 cfe3 e43f a335 0711
000000f0: e3aa 28a4 a3ac ca69 9fe5 16d5 ebd8 1ec8
